toxicitypytorch.pth (torch, 630823 bytes, 17 tensors)

weight f4 [2001, 32]
00000000: fad5 cf3f 2480 7c3d f8c6 873c 8c8e ddbf
00000010: 7fc4 3bbd 7181 27be ceed 1abd a7d9 ffbd
00000020: c3f8 80bb 7206 033f 8ee5 373e 8f33 34be
00000030: f836 88be d85b eb3d 6caa d5bc 1421 d03e
00000040: a15e d4be 4072 e03c 2d1d 623d c004 89bc
00000050: 6e88 603e d41d 523d 16bd 5ebf 4268 1a3f
00000060: 2330 2cbe 3588 d1be 2cd0 2a3d 30b2 3bbb
00000070: f3b1 fbbe 6174 64bf f5c0 fbbb 1f4c 4fbd
00000080: 0916 4d3e d501 75be 6d55 063c 201f 33bf
00000090: 38f6 7fbd 1bce 933f 3b9c 7b3d 4203 93be
000000a0: 7977 39bd 881a f8be 20e8 20bf 38a6 2f3e
000000b0: a3e8 ccbe f91f a5bd b948 f6bb cdad a73e
000000c0: 644e e43e 6a4f 27be 5f1d 2b3d b7c8 40bc
000000d0: f4ef 16be 6138 a83d ffdd 02be 8729 213f
000000e0: 9c04 243f 0f4d 31bf aaec c83d 3fd8 cfbb
000000f0: 22fe 15bd 0fa7 c1be 9850 533e 7d6f 6c3e
00000100: b3d0 d2be 2dfe 523e 0927 1ebb 113c 513f
00000110: 238d d73d 571d dfbd cf69 e6bd 3dc9 e3be
00000120: ac08 10be a834 1b3e 7f4a 2ebf fdc6 42be
00000130: f574 46be eca5 01bf 975e 213e b20b ae3d
00000140: eaef c2bd 8cd1 9f3e b1e3 d1be fe96 af3e
00000150: dd3f 29bd cd3a 9bbe 9f1e 89bf 1706 203e
00000160: 5003 973f 721c 5ebd cb14 e13d 9cb7 6dbe
00000170: 554b 3e3f 6cc7 49bf 854c 10be e284 c0be
00000180: 8b75 50bd a3de 8ebe 70d8 8c3d bbe0 c83e
00000190: 4198 74bc f3e9 82be e042 0bbf e99f 2bbf
000001a0: d986 60be 935d e73d 19c7 adbd 920b f0be
000001b0: 2636 ce3e dc79 39bf 829b ae3d de91 87bf
000001c0: 8b69 47be 6893 183e 86fa 023f 0058 5abe
000001d0: f851 83bf f12a 623e 8256 6d3f 23b5 a7bc
000001e0: e684 9fbe 8b6c ac3d c38e 27be 760f 4ebe
000001f0: b664 703f ecee 79bf 042e aebe 2976 fabd
00000200: dda3 84bf d569 c6be 4a6f 093e 09d3 ff3e
00000210: b6b0 663e 0246 a43f 1c35 d4bd 5a0c b3bf
00000220: c675 abbd ba3a 13bf 50ac 12bf 62e9 8fbf
00000230: 0f3b d93e b4c5 4e3e bc29 82be 1a7c f1bf
00000240: 3520 79be 2251 713d 1e42 d83e 5d10 09bf
00000250: 0fa0 9e3e c4a5 ac3d 69d2 71bf 47a1 9a3e
00000260: bab0 5cbf 78fc 24be b29a 29bd 35f9 60be
00000270: 473f 1ebe 3736 0a3f cb6f 33be 49bc 5fbf
00000280: 61c7 36bf 0cdf 743e 9e0d 293e 5134 713f
00000290: a683 acbd 901c 0f3d ca5d 95be 981c 8b3f
000002a0: 7fdd 5abf bfbc 25bf 3f0a 623d 4c80 0abe
000002b0: 463f 86bf 94cc 463f 91c2 a63f b6ff a13f
000002c0: bba3 573e 2f7d 23bf da3b d3bd ce07 c43e
000002d0: f7f3 b7be f1ff 933d da3b 3a3c 30a7 88bf
000002e0: 2066 b5bf 6569 f7be f322 cdbe 64be dabe
000002f0: eeca 86be c6b7 053f a8a2 9dbf 46bd b6bf
00000300: a546 603d 696d d3be 1a12 2cbe 9176 193f
00000310: 7efd 6b3d 8bd2 5a3f c7a7 a4bf f1f2 b03f
00000320: 52eb 7f3f 2c97 9e3f a70d 14be ba25 9cbf
00000330: 5e22 60bf 9220 723f cd23 473e 9a5f e43d
00000340: 60ce 9a3e aa22 203f b453 3f40 efbe 71be
00000350: 4092 a1be 52b9 1cbe 8640 1d3f e844 60bf
00000360: ffd5 73be 2f1d 173f 066e b13e b1a7 b33e
00000370: 4ede f33f 1499 343f 5d25 95bf a585 6fbf
00000380: 46e8 b2bf 8bc7 9c3f bac7 953f 15cb d63f
00000390: 83ef 2b3f 1333 873c 8979 a0be da1b 303f
000003a0: c3ed d33e 3773 58bf 91f2 3f3e 952f 5b3f
000003b0: bf8d 553f 6a2d 373f 3d0c 943f 3053 ca3e
000003c0: 1f14 7f3e ce18 523f 3a86 0440 d7dc 563f
000003d0: 64d1 f5bf 3350 53be 3828 1ebe b383 c53f
000003e0: f8d1 3cbf f417 d73e c072 2e3d 2ebf 9cbe
000003f0: 054c 5ebf 4011 d73d 1ca5 96be 3a0d 103e
1.6237175 0.061645642 0.016574368 -1.7309127 -0.04584169 -0.16357972 -0.037824444 -0.12492686
-0.0039359047 0.5118171 0.17958662 -0.17597793 -0.26604438 0.11492127 -0.02608224 0.40650237
-0.41478446 0.027398229 0.055203605 -0.016725898 0.21927044 0.051297978 -0.8700727 0.60315335
-0.16815238 -0.4092423 0.041702434 -0.0028640144 -0.49159202 -0.8924008 -0.0076829144 -0.050609704
0.20027937 -0.2392648 0.008199078 -0.6996937 -0.062490672 1.1547273 0.06142829 -0.28713423
-0.045279954 -0.48457742 -0.62854195 0.17153251 -0.40021238 -0.08062739 -0.0075159934 0.32749787
0.44591057 -0.16338888 0.041776057 -0.011766604 -0.14739972 0.082138784 -0.12779997 0.6295399
0.64069533 -0.6925821 0.09810765 -0.006342917 -0.036619313 -0.37822768 0.20636213 0.23089404
-0.4117485 0.20604773 -0.0024132153 0.8173228 0.105249666 -0.10894268 -0.1125065 -0.4448947
-0.14065808 0.15156806 -0.6808242 -0.1902122 -0.19380553 -0.506438 0.1575874 0.084983245
-0.09518416 0.3121456 -0.40994027 0.34294885 -0.04132067 -0.303183 -1.071247 0.15627323
1.1797886 -0.054226346 0.10990294 -0.23214573 0.743337 -0.7881992 -0.1409169 -0.37601382
-0.050893348 -0.27904233 0.0687722 0.39233956 -0.014928878 -0.25569114 -0.5439892 -0.6704088
-0.2192644 0.11297145 -0.084852405 -0.46883827 0.40275687 -0.7245157 0.085257545 -1.059139
-0.19473855 0.14899981 0.5116352 -0.21322632 -1.025939 0.22086693 0.92710125 -0.020472115
-0.3115608 0.084191404 -0.16363053 -0.20123085 0.9390367 -0.9763019 -0.34019482 -0.122295685
-1.0362507 -0.38752618 0.1342136 0.49965695 0.22528347 1.2833865 -0.10361692 -1.3988144
-0.08372073 -0.57511485 -0.5729418 -1.1243098 0.4242787 0.20192605 -0.25422466 -1.8865998
-0.24328692 0.058915265 0.42237943 -0.53540593 0.3098149 0.08430055 -0.94461685 0.3020117
-0.86207163 -0.16111934 -0.041407295 -0.21970065 -0.15453826 0.53988975 -0.17523114 -0.87396675
-0.7139798 0.2391321 0.16509101 0.94220454 -0.084235474 0.03493935 -0.29173118 1.0868101
-0.85494226 -0.6474113 0.055185553 -0.13525504 -1.048806 0.7765591 1.3028127 1.2656162
0.21058552 -0.6386289 -0.1031415 0.38287205 -0.35928318 0.07226551 0.011366809 -1.0676022
-1.4171791 -0.48322597 -0.40065727 -0.42723382 -0.26326698 0.5223354 -1.2315264 -1.4276512
0.054754872 -0.4129441 -0.1680378 0.5994654 0.057614796 0.85477513 -1.2863702 1.382414
0.99968445 1.2389884 -0.14458333 -1.2199013 -0.8755244 0.9458095 0.1944725 0.11151047
0.30235577 0.62552893 2.9894838 -0.23607992 -0.31556892 -0.15305069 0.6142658 -0.8760514
-0.23812102 0.59028906 0.34654254 0.35088876 1.9052217 0.7054608 -1.1652027 -0.935633
-1.3977134 1.2248396 1.1701577 1.6780726 0.6716234 0.016503846 -0.31342724 0.687925
0.41392335 -0.84550804 0.18744875 0.8561948 0.8341941 0.7155367 1.1566235 0.39516592
0.2491002 0.820691 2.0706925 0.83930725 -1.9204526 -0.20636062 -0.1544503 1.5430816
-0.73757887 0.42010462 0.042589903 -0.3061461 -0.86834747 0.10501337 -0.29422843 0.14067546

weight_ih_l0 f4 [128, 32]
00000000: ba48 0b3e c27c d43f 02b2 8d3e 2943 1dbf
00000010: ffc8 b7be 17e4 a63e 8408 cb3e 606c 243f
00000020: 5069 89bd 2abf 49bd 74b9 9c3f 7eeb f63e
00000030: d61f 2bbe a431 8e3e 2c1b d5be f6b1 8b3f
00000040: db9c 42be 40df d6bf aaaf c2bd bccd 013f
00000050: 5077 b93a ed3c 0b3f d735 0fbe 2ae1 ab3e
00000060: 585d cebe e820 99bd ddda 663f a304 503f
00000070: 9404 7abf 5ec8 0dbf 899c 273f 4716 f1be
00000080: be38 89be 37c0 4bbf 89cb 983f 31ca a3be
00000090: c561 e53e 43ea a4be 3a33 a13d ffe5 e53e
000000a0: 0926 a63e b18c e0be eb2e cebe d212 303f
000000b0: eee9 a33d 63dc 7b3f 947a 7ebf 44a1 443e
000000c0: fa69 8bbe b60b 05c0 68ac 4abe ba27 4b3e
000000d0: d532 833e a3b7 4cbf 09b6 e2be 745e 51bf
000000e0: de81 af3e dc5f 6fbe 3e2f d5ba 1fa7 093f
000000f0: a4a6 67bf c4dd 633f 2b95 b1bf 2cec ccbf
00000100: 83b9 dbbf cd1a 153e 24e8 96be 85ff c73f
00000110: d5bd 04bf 78a1 2abe 0f89 0f3f 1f66 14bf
00000120: dc64 283f 745f 25bd 30cb 043f 6edf 72bf
00000130: 7d4c e13f 9b4a f6be 243f 7abf a74f f8bf
00000140: 3164 0a3e efd4 423f e489 3a3f 893d bdbf
00000150: 9e90 9d3f 5f68 86bf 3fe6 023f 0545 02c0
00000160: 9b20 42bc cdf0 3540 4fcd c0be 6ef6 823f
00000170: 1cb2 de3f 726d 743f 3f87 93be f47a d6be
00000180: 1506 9ebe 8c2c ab3e 2597 5b3e 3701 753e
00000190: 42e2 b5be 8622 013f 3e2a 853f e483 6b3e
000001a0: 4100 98bf 615a 0ebf 8bfc 983d 8b5e 8dbf
000001b0: 4f2d 873e 3e79 4f3e bb5a 92be f255 3bbe
000001c0: 900c 48be c298 cdbe 285f 933f 45df 48be
000001d0: bb9e 8f3f a972 d33f ccf7 77be 6afb a53f
000001e0: 4c09 17bf 0449 7abf 534e 37be 2589 66bf
000001f0: 9c6f adbe cf70 713f 06df 4bbf a8af a23d
00000200: c678 27bf 3146 f9bd 6b69 bcbd 8895 2b3f
00000210: 438d ef3d 4f4d db3d 37ad 253d c890 1d3f
00000220: d062 a539 b516 b1be 2aca 2fbe 11ae bbbd
00000230: b036 a23c 42c0 1f3d 69e1 e33e ab3e 9e3d
00000240: 52a1 093e dc5f 4f3e 4818 883e 4962 b33a
00000250: 3780 47bc 667d 16be 77de 353e 35bf 35bf
00000260: 73fd 833d 2045 d63e 17b3 f2bd 9b2b ecbd
00000270: cb78 a73e 2b5d 173f 5b96 c4bd 9bfc 81bd
00000280: 73a4 03bf 3420 9c3e 729b 5bbc 03ba 353f
00000290: e2cd bdbc 1a73 3e3e 41f8 763e ff53 983e
000002a0: ba9f ad3e edf6 babe 9332 d0be a6c3 3e3e
000002b0: 1c40 063f e6aa 83be ed86 5cbe baae 17bf
000002c0: b211 283d fc4f 92bc 7f2e 0abf 7f18 b03c
000002d0: 6c6b 21bd 9061 c8be e725 263f 1ce4 26bf
000002e0: 4ac1 a83e 10fd 2b3f 60aa 2d3e 70d4 6b3e
000002f0: 4526 66bd 948c 173f f18e fa3d f4e3 563e
00000300: de21 aabf 0e64 5a3e 459b 2a3d f3cc 1c3f
00000310: 15cd 1c3f 23d2 493f 1176 ed3e 9780 013f
00000320: 7439 4e3f 13df 0cbf 416e 053f 4a80 0f3f
00000330: 68a3 33bd 9003 aa3f ffbd 073f 5dfb 8ebe
00000340: 8ef9 753f 509b 0cbf ea7f e73e 81dc 9bbf
00000350: a505 173e 7d48 88bf d864 34bd b47f eabe
00000360: ae48 2d3d c0c8 8f3f 8b17 a0bc 104a ccbe
00000370: a2bb e0bb bd86 0c40 af30 94be dccb debe
00000380: cf91 723d dc1f 013f 91e5 21bd 1240 7abd
00000390: 38d5 7f3f 9654 af3f 8fa4 0abe d16f e83e
000003a0: 834a 9c3e e0c9 053d 4743 c8bf 42ee 87be
000003b0: 660c 93bd 1a74 76be 0aae b23d 4fbc c2bc
000003c0: e4b4 303f 8fec ab3e a646 973f 2ddb 45be
000003d0: 5af3 7c3e 6ddd 21bf 39e6 5a3e dfe5 5cbe
000003e0: afda 6e3f d3bb a8be f6f5 003e 54e4 9d3f
000003f0: 5f17 fe3e 2fc3 c03d eb75 303f 11b6 e13d
0.13601962 1.6600573 0.27674872 -0.61430603 -0.35895535 0.32595894 0.39654934 0.6422787
-0.0670954 -0.049254574 1.2244096 0.4822654 -0.16711363 0.27772248 -0.41622293 1.0913684
-0.19005148 -1.678688 -0.095061615 0.5070455 0.0014149938 0.5438984 -0.13985382 0.33570224
-0.4030559 -0.074769795 0.9017771 0.81257075 -0.97663236 -0.5538386 0.6547323 -0.4708731
-0.26801103 -0.7959017 1.1937114 -0.31990197 0.44801155 -0.32209978 0.07871099 0.44902036
0.32450894 -0.4385734 -0.4027017 0.6877872 0.08003603 0.9838316 -0.9940579 0.19202143
-0.2722929 -2.0788398 -0.1979233 0.19839373 0.2562472 -0.7996771 -0.44279507 -0.8178475
0.34278768 -0.23376411 -0.001626469 0.5377063 -0.9048865 0.8901026 -1.3873647 -1.6009574
-1.7165989 0.14561005 -0.29473984 1.5624853 -0.5185216 -0.16663158 0.5606851 -0.57968324
0.657789 -0.040374234 0.5187254 -0.94872177 1.7601467 -0.48103794 -0.97752595 -1.9399308
0.13514782 0.7610616 0.72866654 -1.4784404 1.2309759 -1.0500602 0.5113258 -2.0354626
-0.011848594 2.8428223 -0.37656638 1.0231454 1.7398105 0.954795 -0.28814122 -0.4189068
-0.30864015 0.33432424 0.21444376 0.23926245 -0.35524184 0.50443304 1.0403516 0.22999531
-1.1875077 -0.5560666 0.07470044 -1.1044477 0.26401755 0.20261094 -0.28584847 -0.18294504
-0.19536042 -0.40155607 1.1513414 -0.1961642 1.1220316 1.6519367 -0.24215621 1.296735
-0.5899856 -0.97767663 -0.17900972 -0.90053016 -0.33874214 0.9431276 -0.7963718 0.0794366
-0.6541866 -0.12171591 -0.091997944 0.6702504 0.116968654 0.10708105 0.040448394 0.61549044
0.00031544873 -0.34587637 -0.17166963 -0.0916406 0.019801468 0.03900171 0.44507912 0.07726797
0.13440445 0.20251411 0.26581025 0.0013685907 -0.012176565 -0.14696273 0.17760645 -0.70994884
0.06444826 0.41849613 -0.11850565 -0.115317546 0.32709345 0.5912654 -0.095989905 -0.06347009
-0.51422805 0.3049332 -0.01340376 0.70986956 -0.023169462 0.18598595 0.24118139 0.29751584
0.33910924 -0.36516514 -0.40663585 0.18629321 0.52441573 -0.25716323 -0.21535845 -0.59250987
0.0410325 -0.017860405 -0.539772 0.021496056 -0.039409086 -0.39136934 0.64901584 -0.6519182
0.32959968 0.6718302 0.16959524 0.23030257 -0.05618884 0.5919888 0.12234295 0.20985395
-1.3291585 0.2132723 0.041651983 0.6125023 0.6125043 0.7883627 0.4637914 0.5058684
0.80556417 -0.55027884 0.5212136 0.5605513 -0.04385701 1.3282337 0.53024286 -0.2792615
0.96083915 -0.5492449 0.45214778 -1.2176667 0.14748247 -1.0647122 -0.044041485 -0.45800555
0.04230564 1.1233139 -0.019542476 -0.39900255 -0.006858305 2.1957238 -0.28943393 -0.43514907
0.059221085 0.5043924 -0.039525572 -0.06109626 0.9993472 1.3697689 -0.13539337 0.4539781
0.30525598 0.032663226 -1.5645531 -0.26548964 -0.07180099 -0.24067727 0.087246016 -0.023771433
0.6902602 0.33578917 1.1818435 -0.1932189 0.24702206 -0.63228494 0.21376885 -0.21572064
0.93302435 -0.32955799 0.12593827 1.2335305 0.49627206 0.09412228 0.6892993 0.110210545

weight_hh_l0 f4 [128, 32]
00000000: 98a3 933f 58f7 533e 57fc b7bf d480 b83f
00000010: bb52 403f efee 8bbf f0eb 3c3f 97ae 503f
00000020: cef1 c43e 7449 6f3f 7060 3abe 3b15 4740
00000030: 7860 00c0 6eb5 523f c0a1 29bf a0a0 a83e
00000040: b3bd ebbb 9397 0040 789d 50bd 57b2 25be
00000050: 3fa6 39bf b321 8d3e bab6 3c3f fb3f 94bf
00000060: fa29 893f 723b 24c0 6a2f af3e b6be b53e
00000070: f993 2dc0 45cd d2be 5639 39bf 6d81 863f
00000080: c1a1 a4be 483f 7c3d 71ca 0bbe eff4 8cbf
00000090: 10a2 b3be a0cc cb3f 1af5 963f 577e ec3d
000000a0: dda1 8ebd 79c1 4cbf 5acd 80bd ba02 9ebe
000000b0: 9265 483d 45db e83e 5a6a 1cbe 21c5 91bf
000000c0: 02dc 3cbf f052 8bbf 5de5 793e 71a8 d93c
000000d0: 0243 033f 590f 893f 21ea 80bd ae1a 13be
000000e0: 631d d53f c91c e63e 07aa 27bf fc4a 183f
000000f0: eb07 a9be cbf0 90bf ea67 6d3e dcb9 47be
00000100: eea0 c83f a917 ac3f 51e2 c83d 0985 5bbf
00000110: c650 0f3e 9c02 f1be 0910 1bc0 1ef3 213f
00000120: b745 463f 11fb 55bf 35df 0740 9f73 b93e
00000130: 69fb 20bf dc0f 8f3f 441a 3f40 e78b 003d
00000140: 76e6 423f e5ff 5c3f 5814 d73f e5a4 f0be
00000150: fc29 2bbe 8ee3 153f afda 8a3f bf12 08c0
00000160: 8ce2 6a40 2427 58bf 543f 4dbf db41 c13e
00000170: b1d6 613f 3edb 20bf 0ed7 f43e 2dd7 f53d
00000180: 3f34 4a3f bb22 b5bf a611 1abf 1ee5 4d3f
00000190: 6ba0 96be 4c02 923e 2724 98bf b7b4 7c3f
000001a0: 0163 02be fb91 fb3e 7192 883e c722 7ebf
000001b0: db65 19bf ab8a 97bf fbe1 da3e 941c 0e40
000001c0: 4804 d43f 4b08 1940 22d9 fabe 4a8e acbf
000001d0: d0b8 7ebd 95f3 8b3d 98bb b7be ff00 9ebf
000001e0: 21ce 083f ff79 aa3c bf9e 613f 1d06 1c3f
000001f0: cdf9 83be 122a 4a40 52ea 1ebf 9fc0 ff3d
00000200: a809 be3f ba0e 8a3f 48a0 aa3e b7cc 1ac0
00000210: bc0e ae3e e17f 663f e60a f63e 7f40 763f
00000220: fbe9 91bf 59ef c63f 30ee 7f3f ae98 be3e
00000230: 96af b9bf f85c e53e 5392 053f 2c64 64bf
00000240: b6f8 8b3f 99ad c8bf 7d26 55c0 bd05 253e
00000250: 846b 44bf 77ca a23f 2950 efbd 20a6 06c0
00000260: d692 aa3f 0b39 68bf 1ee2 6cbe 27a7 e3bf
00000270: 2a28 f43e da66 bb3f ce7e 65be 7b90 363f
00000280: 7e47 8f3f aba5 683f e37f 96bf 37f8 b83e
00000290: c793 843f 7438 15bf 309d 00c0 222a 93bf
000002a0: 250d c2bf d973 9e3e 6e65 843f 0d73 253f
000002b0: 3a86 a6bf 27a0 7b3d 49c3 90bd cfe8 b4be
000002c0: 4d12 fa3f 5752 b33f 544b 973f 19be bc3f
000002d0: 1cb1 d8be b810 803e de9f c53f e3ce 33c0
000002e0: acdb 893f d63a 5cbf 7aec e0bc ea87 4ebf
000002f0: 81ea 42be ebad 0540 fa0f 2440 500a 12bf
00000300: 8824 733f d890 4f3f 8d67 3fbd e46d 003e
00000310: 69f9 b0bf 0502 a8bf 0d23 843f 6c9d 873f
00000320: 2d6b 14bf bf6d 243f 2d19 d23f 1be7 573f
00000330: f1b3 4f3f 19eb 8b3f a92b 6c3f 6ad4 9b3f
00000340: 13dc c5bf 67ac d73e cea1 3240 ab4b 943d
00000350: c178 b03c ac48 443f dfcc 7ac0 de17 0c3f
00000360: a149 8ebf 012a 2f3f d786 d23f 94a9 0540
00000370: 2189 4840 135b cd3f fbb5 7dbf 29a7 2b3f
00000380: d016 0f3f 626e 6a3e ab6b 943e b7b9 533f
00000390: 9e09 b1be da88 ee3d b850 f1be 2e27 0940
000003a0: fdc7 543f da00 09bf 00dc ecbf 2efb e3bf
000003b0: 2de1 d6be 91d7 8bbf c34f 6c3f b508 0e3f
000003c0: b469 10bd c770 68be 6907 d9bf 652e 69b7
000003d0: 9e6c 8abf 3cc8 6dbf 566d 2c3f 002d 1e3f
000003e0: 732b d43e 2ec9 c8be 15b2 6abe ba08 67bd
000003f0: 9113 98bf 406a 563e 24e9 0dc0 851d bc3d
1.15343 0.20699823 -1.4373883 1.4414315 0.75126237 -1.0932292 0.7379751 0.815164
0.38465732 0.93471456 -0.1820085 3.1106708 -2.005888 0.8230809 -0.66262436 0.32935047
-0.007194245 2.0092514 -0.050931424 -0.16181313 -0.72519296 0.27564773 0.7371632 -1.1582025
1.0715935 -2.5661283 0.34215862 0.35497063 -2.7121565 -0.41172233 -0.7235311 1.0508248
-0.32154658 0.061583787 -0.13651444 -1.1012248 -0.3508458 1.5921822 1.1793549 0.11547535
-0.06964467 -0.79982716 -0.06289168 -0.30861455 0.04892499 0.4547979 -0.15274945 -1.1388284
-0.73773205 -1.0884686 0.24403901 0.026569577 0.5127412 1.0707809 -0.062946565 -0.14365646
1.6649593 0.44943836 -0.65493816 0.5948942 -0.33013853 -1.1323484 0.23184171 -0.19504493
1.5674112 1.344472 0.098087914 -0.8574987 0.13995656 -0.47072303 -2.4228537 0.6326159
0.77450126 -0.8358622 2.1229985 0.36221024 -0.6288362 1.1176715 2.9859781 0.03138342
0.76132905 0.86327964 1.6803083 -0.47000805 -0.16715235 0.58550346 1.0847987 -2.1261442
3.6700773 -0.84434724 -0.80174756 0.37745556 0.8821822 -0.6283454 0.47820324 0.12003932
0.7898597 -1.4151224 -0.6018318 0.8042773 -0.29419264 0.28517377 -1.1886033 0.9871325
-0.1273308 0.49134812 0.26674226 -0.99271816 -0.59921044 -1.1839193 0.42750534 2.2204943
1.6563807 2.3911312 -0.48993784 -1.3480923 -0.06218797 0.06833569 -0.3588531 -1.2344054
0.5343953 0.020810125 0.8813285 0.6094683 -0.2577652 3.1588178 -0.62076294 0.124879114
1.4846697 1.0785744 0.3332541 -2.4187448 0.33995616 0.9003888 0.4805519 0.96192163
-1.139953 1.5541793 0.9997282 0.3722586 -1.450671 0.44797492 0.521764 -0.8921535
1.0935276 -1.5677978 -3.3304741 0.1611547 -0.76726556 1.2718037 -0.11685211 -2.1038895
1.3326061 -0.9071204 -0.23133132 -1.7785386 0.47686893 1.4640763 -0.22411653 0.7131421
1.1193693 0.9087779 -1.1757778 0.36126873 1.0357598 -0.58289266 -2.009594 -1.1497233
-1.5160261 0.3094776 1.0343454 0.6462868 -1.3009713 0.06143203 -0.07068498 -0.3533387
1.9536835 1.4009503 1.1819863 1.4745513 -0.42322624 0.25012755 1.5439413 -2.8095024
1.0770164 -0.86027277 -0.02745651 -0.8067614 -0.19034769 2.08874 2.5634751 -0.57046986
0.9497762 0.8108039 -0.046729613 0.1254192 -1.3826114 -1.3125616 1.0323197 1.0594916
-0.5797604 0.6422996 1.6413933 0.84337014 0.81133944 1.0931121 0.9225412 1.2174199
-1.5457786 0.4212372 2.7911258 0.07240995 0.021541955 0.7667339 -3.9187543 0.5472392
-1.111622 0.6842347 1.64474 2.0884752 3.1333697 1.6043419 -0.99105805 0.6705194
0.55894184 0.2289367 0.28988394 0.82705253 -0.3457765 0.11647196 -0.47131896 2.1430163
0.8311766 -0.53516924 -1.8504639 -1.7811029 -0.4196867 -1.0925161 0.92309207 0.55482036
-0.035257056 -0.22699271 -1.6955386 -1.3898684e-05 -1.0814397 -0.9288366 0.67354333 0.61787415
0.414394 -0.39215988 -0.22919495 -0.056404807 -1.1880971 0.20938969 -2.2173548 0.09185318

bias_ih_l0 f4 [128]
00000000: cc11 23bd cee7 533e d81e b8be d6f9 1c3f
00000010: 6ace 09bf 58a0 8dbf ba8e 7ebe c9a1 ac3e
00000020: 740a a63e a618 963d 81d4 4dbd be51 7cbd
00000030: a599 03bf 7da5 4d3f 61c9 743f 65a6 90be
00000040: 0872 903e fe38 2dbf 4cf1 ddbc 27f1 863e
00000050: 259f 223f 0148 753e 44c2 a1bf e4f9 3abf
00000060: c794 e5bd 63c3 3e3e 5d9c 84bd 0e9b b7be
00000070: 34f4 eabe ed30 233f 90f0 2b3f 17b1 583f
00000080: d6f8 ce3e b916 06be c333 c63e 7dec 0c3f
00000090: 9867 c53e f817 303f 446b b93b 2c2e 0c3e
000000a0: b6b6 0d3f aa4c acbd 258f c5bd ae94 573e
000000b0: fbeb 17be b888 923e 9381 2cbf 97fc 233f
000000c0: e818 a0bd c6c6 843f c455 d13e 4a21 4a3e
000000d0: 038e 8dbd 2556 0cbf e27c 203f 44ec c33d
000000e0: 057c 37bf c998 38be 2f61 cabe b0a2 be3e
000000f0: d1ec 463f 3491 143f 1aa9 aabe ca99 1a3f
00000100: 32da fc3d b953 09be 25f8 8bbe d49f 0dbb
00000110: 9d9b e43e f8bf 1c3e dc24 d43e 408c b23d
00000120: c28f d93e 1e98 093f b823 d3bf 3408 68bf
00000130: c64a 2d3f 2efa 6a3f e623 b0bf 066f f7bd
00000140: 98ec f4bd b981 69bf 7e08 0ebf 41ac 4abd
00000150: 3fac f93e c617 b7bf c6a2 2e3e 92f3 d73e
00000160: 7bb0 813f 0331 d7be 9080 0e3e 7961 0b40
00000170: 74bf 18bf f18d 293e 5052 293f ef1f 3c3e
00000180: d9de 8bbf a7fb 51bf cc1c 8d3e 97f9 e7bd
00000190: a065 523e 7ecc a43e fa2f 2b3f 1f73 38bf
000001a0: 58e1 91be b8fa 30bd 3284 a53e 2c9b 45be
000001b0: 260a 2fbf f7fe 573e dd1c 1c3f 4c3d a43e
000001c0: 1776 1bbf 6a28 53bd add6 54bf 15b7 053f
000001d0: 2ac7 6b3f eff0 c13e 21d1 8d3e b3fc e33e
000001e0: 68d6 8dbe 3812 423f 27b7 533c 8605 213e
000001f0: 18eb 4abd 9f9a 0c3f 0d21 053f ce8f 7cbe
-0.039811894 0.20693895 -0.35961032 0.6131872 -0.5383059 -1.1064558 -0.24859133 0.33717182
0.3242985 0.0732892 -0.050251488 -0.061601393 -0.5140632 0.8033064 0.9561978 -0.2825195
0.28212 -0.6766509 -0.027092598 0.2635586 0.63524085 0.23953249 -1.263741 -0.7303755
-0.11210018 0.18629222 -0.064751364 -0.35860485 -0.45889437 0.6374653 0.67163944 0.8464522
0.40424222 -0.13094606 0.38711366 0.5504835 0.38555598 0.68786573 0.005658539 0.13689488
0.5535692 -0.0841306 -0.09646443 0.2105281 -0.14836113 0.28619933 -0.67385215 0.64057297
-0.078172505 1.0373161 0.40885746 0.19739261 -0.06911852 -0.54818946 0.62690556 0.095665485
-0.71673614 -0.18027033 -0.3952727 0.37233496 0.77705103 0.5803406 -0.3333214 0.60390913
0.12346305 -0.13410844 -0.27337757 -0.0021610158 0.44649974 0.15307605 0.4143437 0.08718157
0.4249249 0.5374774 -1.6495275 -0.90637517 0.6769222 0.91787994 -1.3760955 -0.12081723
-0.11959189 -0.91213566 -0.5548171 -0.04948068 0.48764226 -1.430413 0.1705428 0.42178017
1.0131983 -0.4202958 0.1391623 2.1778243 -0.59667134 0.16558053 0.66141224 0.18371557
-1.0927383 -0.82024616 0.27561033 -0.11326902 0.2054658 0.32187265 0.6687008 -0.7205066
-0.28492236 -0.043207854 0.3232742 -0.19297475 -0.6837486 0.21093355 0.6098154 0.32078016
-0.60727066 -0.051552214 -0.8314007 0.52232486 0.92100775 0.3787913 0.27698615 0.44528732
-0.2770264 0.7580905 0.012922085 0.15724763 -0.04954061 0.54923433 0.52003556 -0.24664232

bias_hh_l0 f4 [128]
00000000: 2b9e 8e3e 7896 a83d a910 f4be a0fa 1b3f
00000010: edad 11bf 13c8 48bf 1433 783c 0101 aa3e
00000020: e923 9f3e 6291 80bd 284c f2bc 494b 3dbe
00000030: b23a f9be 38c7 843f 9dbe 353f de75 9abe
00000040: 3d44 ae3e 8f23 2cbf 10b7 deba 8c82 ff3c
00000050: c935 083f 8f41 70bd 52e7 a6bf ae7e 17bf
00000060: 8092 36bd 3264 ea3e b4c8 4fba dcd9 b4be
00000070: f44f a4be a70e 493f 5b84 4f3f 0675 753f
00000080: bac9 5c3e 5ada 9ebe 4aa6 a03e ce09 ef3e
00000090: eb27 823e 1924 403f 9c63 98bd 7d13 a43e
000000a0: 6a2c bd3e 876e edbd 7747 32bd c9f1 75bd
000000b0: 24c6 d6bd e5fa 933e 0cc6 2bbf ee8d 2f3f
000000c0: 6643 4ebe 8580 8e3f ad0d 5f3e c839 7a3e
000000d0: edf2 193e 6f2f adbe 8372 263f 01c3 21bb
000000e0: 5c3c 13bf b3ca 383d 6361 08bf a258 013e
000000f0: 2b9b 6c3f 9aab 163f 5464 45be 482f 003f
00000100: de5b 193e 62f7 c7be 5509 85be e70c d0bd
00000110: 5ebc 4a3e fb24 de3c 8062 0a3f 344b 763e
00000120: db28 113f a841 273f a2f7 acbf 0d4e 58bf
00000130: 5d10 333f 59d3 7b3f d38e a4bf afea c43d
00000140: db17 0dbe c347 5fbf a949 20bf fdbd c83c
00000150: 8325 ab3e d1ff adbf 7c4c b83e a7a7 d53e
00000160: d8f0 863f 5efb 29bf 8c44 a03e 6056 0840
00000170: 2b3d a0be 8cc5 c73d 2458 263f 1b64 c13e
00000180: 9eff 6bbf 3d8a 3dbf e888 a93e 9837 35be
00000190: a8c8 2d3e 0225 6c3e abfa bb3e cb72 83bf
000001a0: f7bd 9ebe 8e08 34be 942a bb3e d726 aabe
000001b0: 1c39 27bf d0d0 f63e 475c 2c3f 4cac ff3e
000001c0: f08d 09bf f865 50be b2c4 56bf b517 d73e
000001d0: 42ef 773f c1a7 e13e 0233 af3e 833c bd3e
000001e0: aa4f c7bb d70a fd3e e993 663c 62cc de3d
000001f0: 3b22 8bbd 7936 033f 4841 943e 770f b0be
0.27855048 0.08231825 -0.4766896 0.609293 -0.56906015 -0.7843029 0.015148897 0.3320389
0.31082085 -0.062777296 -0.02957733 -0.1848575 -0.48677593 1.0373297 0.7099398 -0.3016805
0.34036437 -0.6724176 -0.0016991813 0.03119018 0.5320707 -0.05865627 -1.3039343 -0.5917767
-0.044573307 0.45779568 -0.00079263304 -0.35322464 -0.3209225 0.7853798 0.81061333 0.9588169
0.21561328 -0.31025964 0.31376868 0.46687168 0.2542108 0.7505508 -0.07440874 0.32046118
0.36947948 -0.11593347 -0.043525185 -0.060045037 -0.10487011 0.28902355 -0.6709907 0.6857594
-0.20142898 1.1132971 0.2178256 0.24436104 0.15034075 -0.3382525 0.6501848 -0.0024682882
-0.57513976 0.045115184 -0.532736 0.12631467 0.9242427 0.58855593 -0.19276553 0.50072145
0.14976451 -0.39055926 -0.25983682 -0.10158711 0.19798419 0.027117243 0.5405655 0.24052125
0.56702965 0.6533456 -1.3513072 -0.84494096 0.69946843 0.98369366 -1.2856086 0.09615075
-0.13778631 -0.87218875 -0.62612396 0.024504656 0.33427057 -1.3593694 0.35995853 0.4172947
1.054225 -0.6639918 0.31302297 2.130272 -0.31296667 0.09754476 0.6497824 0.37771687
-0.92186916 -0.7403906 0.33112264 -0.17696989 0.16971076 0.23060992 0.36714682 -1.0269407
-0.31004307 -0.17581388 0.36555922 -0.33232757 -0.65321517 0.48206186 0.67328304 0.4993614
-0.53732204 -0.20351398 -0.83893883 0.42010275 0.96849453 0.440733 0.34218603 0.3696023
-0.0060824947 0.49422333 0.0140733505 0.10878827 -0.06793638 0.51254994 0.28956056 -0.343868

weight_ih_l0_reverse f4 [128, 32]
00000000: cdbe 37bf b7c7 91be 99a9 64be 5800 2f3f
00000010: 3868 84be 57e4 cabd a92e a73e 9faf 0b3f
00000020: a06d 093f 7645 72be b69a 0b3f c9c7 bc3e
00000030: f29f 693f 6682 743d 94c9 6abe 2ba7 48bf
00000040: d570 313e ebc3 543e 128f afbd 4193 13bf
00000050: dc6a b43e 929f 4f3d 7226 063f ae2b 9abf
00000060: 50b4 a3be b17f a83f f72e 9abc 8bb3 a53e
00000070: e9a1 02be 4b73 723f 231f 113e 8ed5 903d
00000080: 84be aabf e4b4 8fbd a56a 4cbe 93a5 693f
00000090: d56e 8f3e f783 e4be 1d15 b6be 1023 ab3e
000000a0: 01a9 063f 9480 a2be b90d b73f 82ae bebe
000000b0: a21f 893f e9e0 bfbc a646 adbd a93f 8cbf
000000c0: 8e1f 463e ed9f 753c 4c13 cd3e 03a2 7fbe
000000d0: dc49 40bf 39fb a0bd f6f7 813f 9f12 8ebf
000000e0: b922 8dbf 74da 303f 5147 b3be a41f b93c
000000f0: f3be 123f 7434 043e 2836 24bf 3ed6 013f
00000100: e8c3 9ebf 2b43 34be f097 15be fbb1 5b3f
00000110: 93e5 a13e feb8 7bbe b978 31be cfb4 a83e
00000120: 1467 123f 728b 93be 6a7b b93f c0d3 c1be
00000130: 7dca 933f cb0c 84bd a86e 91be 9f59 a7bf
00000140: eea8 b9ba 7b06 56be 0c77 b13e e847 8abe
00000150: 0f42 72bf 7943 d4bc 3b91 593f 5f62 87bf
00000160: ccd3 9abf 2a16 973f 56e1 fbbe de65 a33e
00000170: 38fe 273f 1b66 053e b93c cdbe b40d 7b3f
00000180: 91eb 9dbf 1c6e c33e 7d75 a63c a61d 953f
00000190: 9272 083e 2d93 dfbe 0435 993e ff55 573f
000001a0: 6771 e93e fb6e 55bd 6394 2a3f 1674 7d3e
000001b0: c4c7 c03e 3cf0 dd3e 510f ab3e 6fd7 043e
000001c0: 5365 bd3d 9802 fc3e 6108 d6bd e4db f2bd
000001d0: 2aa7 0abe 8a0a ebbe f9cc 273f 25e8 3fbf
000001e0: 61e8 22bf 6935 7d3f 9006 53be 44fa 843e
000001f0: d069 06be 6bd3 5c3f 5593 abbd 8d7d 64be
00000200: 4455 3dbf ec74 0ebe 1cd3 c3be 6924 463f
00000210: f1ed a4be 5623 32be 9b4f 743e a6ac 483f
00000220: d64a 4b3f fd1d 5fbe fc5c 133f fdee a73e
00000230: 1478 1d3f 0c53 e53e fb37 b9be f1b2 09bf
00000240: 5d03 c33e 5dc5 8c3d 4637 a2be add7 b9be
00000250: fcd1 aa3e 2a8b ffbe fe34 283f 6a91 73bf
00000260: 5a5f d0bd 422e 553f c37f 99bd 8559 193f
00000270: 81d6 34bd 17bb 833f fce4 153e cd04 b53d
00000280: b826 70bf 42e2 bb3d 445c 783b ce61 a03f
00000290: b246 123e 9f96 c3be c5e2 f73d b12f 323f
000002a0: 81ec 903e c865 2ebe f1f4 4a3f c446 c43e
000002b0: 1502 b33e 9f2d 8d3e 7732 183f e231 22bd
000002c0: df50 9abd 4508 c43e c86d 6ebd 856f f0bd
000002d0: 1f64 aa3c a02d ccbe 4abf b63e 9774 49bf
000002e0: 06e6 1dbf 0ebf 803f 6822 3cbe 53bf 223e
000002f0: c8ce 1a3e c67e 1d3f e530 2ebd f26d c13d
00000300: 4a62 68bf 2492 cabe 29c2 51be 9eb2 793f
00000310: e2ac 743e fe17 03bf 350d c8be 189f 5b3e
00000320: c251 de3e b525 76be 17c4 8e3f e63d d7be
00000330: 9503 5a3f 3999 a6be bd15 0abd 7d0c 9cbf
00000340: 9b36 d73e d25e 14be 8e17 4e3e 5577 bebe
00000350: acb6 17bf 4b37 c83c 6ced 293f 3f2c 9dbf
00000360: 5f88 45bf 50ef 8b3f eea9 80be 5495 9d3e
00000370: bf4b 0a3f a363 063e 2ec9 b8be 613f 763f
00000380: a261 27bf 865a fabe f5de 1dbd 899f 513f
00000390: 1478 1abb 8991 cdbd e954 933e 0668 2e3f
000003a0: 4863 083f c765 48be 38a9 0a3f bb06 023f
000003b0: f109 593f 97b6 d93d c163 523e 27b4 20bf
000003c0: 5bd6 a53c aaa7 8c3e 21cc 713e ffde 3abf
000003d0: 9c05 d1bc 1eb6 81bd de9c 3e3f 4646 49bf
000003e0: c1c8 36bf b80f 8c3f 88f1 ddbd b856 a83e
000003f0: 8dfa 803c dff7 463f c740 253e d578 bdbd
-0.71775514 -0.28472683 -0.22330321 0.683599 -0.25860763 -0.099068336 0.32652786 0.5456485
0.536829 -0.2365931 0.54532945 0.36871174 0.9125968 0.05969467 -0.22928458 -0.7838008
0.17328198 0.20777862 -0.0857221 -0.57646567 0.35237777 0.050689287 0.5240241 -1.204458
-0.31973505 1.3163968 -0.018821223 0.32363543 -0.12757076 0.94707173 0.14172034 0.07071982
-1.3339391 -0.07016924 -0.19962557 0.9126827 0.28014246 -0.4463193 -0.35562983 0.33425188
0.5260163 -0.31738722 1.4301063 -0.37242514 1.0712779 -0.023422675 -0.08460741 -1.0956928
0.19347975 0.014991743 0.40053785 -0.24964146 -0.751127 -0.07860417 1.0153797 -1.1099433
-1.1026222 0.69083333 -0.35015348 0.022598095 0.57322615 0.12910634 -0.64145136 0.5071753
-1.2403536 -0.17603748 -0.14608741 0.8581845 0.31620464 -0.24582288 -0.17331208 0.32950446
0.57188535 -0.28817326 1.4490788 -0.37856865 1.154617 -0.064477526 -0.28404737 -1.3074225
-0.0014164725 -0.2090091 0.34661138 -0.27007985 -0.9463205 -0.02591108 0.8498723 -1.0576895
-1.2095885 1.1803639 -0.49195355 0.31913656 0.6562228 0.13027231 -0.4008539 0.98067784
-1.2337514 0.38169944 0.020319695 1.1649673 0.13324955 -0.43666974 0.2992326 0.84115595
0.45594332 -0.052107792 0.6663267 0.24751315 0.3765241 0.43347347 0.33410123 0.12972806
0.09247842 0.4922073 -0.10450817 -0.11858347 -0.1354033 -0.45906478 0.6554714 -0.749636
-0.6363583 0.9890962 -0.20607972 0.25972188 -0.13126302 0.862601 -0.08377711 -0.22313519
-0.7395823 -0.1391179 -0.38247 0.7739931 -0.32212785 -0.17396292 0.23858492 0.7838844
0.79411066 -0.21788783 0.5756376 0.3279952 0.6151135 0.44789922 -0.36175522 -0.5378867
0.38088503 0.068735816 -0.31682795 -0.3629736 0.3336333 -0.4991086 0.6570586 -0.9514376
-0.10174437 0.8327371 -0.07495072 0.5990222 -0.04414988 1.029147 0.14638132 0.08838806
-0.9380908 0.09174015 0.0037896791 1.2529848 0.1428478 -0.38200852 0.121038 0.6960402
0.28305438 -0.17031014 0.7928 0.3833524 0.34962526 0.2757387 0.59452003 -0.039598353
-0.07534956 0.3828756 -0.058210164 -0.11740021 0.020799695 -0.3987856 0.35692817 -0.78693527
-0.6167911 1.0058305 -0.183725 0.15893297 0.15117943 0.61521566 -0.0425271 0.094447985
-0.9077498 -0.3956462 -0.20484222 0.97538173 0.23894075 -0.51208484 -0.39072576 0.21447408
0.4342175 -0.24037822 1.1153592 -0.42039412 0.85161716 -0.32538775 -0.033712137 -1.2191311
0.42033848 -0.14489296 0.20126173 -0.37200418 -0.5926311 0.024440428 0.663779 -1.2279128
-0.7716121 1.0932407 -0.25129646 0.3077799 0.5402183 0.13123946 -0.36090988 0.9619046
-0.6538335 -0.4889719 -0.038542707 0.81884056 -0.0023570107 -0.10037524 0.2877572 0.6812748
0.5327649 -0.19570075 0.5416446 0.5079152 0.84780794 0.106305294 0.20545866 -0.6277489
0.020243814 0.27471668 0.23613025 -0.72996515 -0.02551537 -0.06333564 0.7445811 -0.78622854
-0.71400076 1.0942297 -0.10837084 0.3287866 0.015744472 0.7772197 0.16137992 -0.092515625

weight_hh_l0_reverse f4 [128, 32]
00000000: e4eb 733d 0197 aa3c e5a2 b23c 46f1 713d
00000010: 55e0 783d 6c2e ecbd 260b 2bbe ddd0 023d
00000020: 40b5 c8bc 719e 0d3e 7b96 0bbd efc0 dabd
00000030: 75d6 8c3d 2853 07be 0c34 2b3d 4df1 b7bd
00000040: 6064 2f3d 59a4 1ebd 4093 a33d ae22 d93c
00000050: be75 d9bd 6b17 e23d 9d0a e8bd 6055 e9bb
00000060: 8877 fb3d 7d61 18bd d597 c33d 7edb 00be
00000070: 3019 27be 6756 12be 2400 96bc e238 dabd
00000080: 418f 0fbd 8bdf 963d 738e 27be 94c4 2ebe
00000090: 390f 0c3e 1522 403d 3ee0 933c de07 8b3d
000000a0: 545d 953c 3647 b03d ea27 163d dad6 f4bd
000000b0: 83d3 53bd 4b7b fa3d cd82 1abe aabc 423d
000000c0: 936a 0f3d 8116 2ebe 42e9 a23d fde9 78bb
000000d0: 3ab0 563c 6ebc adbd 60bb 1fbe 61ae eebc
000000e0: 8ace ff3d 7724 dab9 5804 a43d d493 323e
000000f0: 834d d3bd cfc0 f03d ff12 2c3e 76ba 163d
00000100: 4cc1 15bd 06dc 01be 2f44 d03d ff01 4dbd
00000110: aa07 2abe 45e5 f63d 07b3 24be b687 3b3d
00000120: 8aa4 4dbd 1bbe 2cbd beeb 20be 28a6 1ebe
00000130: d22c 28be cb4a 213a 71fd d93d c178 c13d
00000140: 9a26 0bbd cae3 04bd 07cd dd3c 516d 30be
00000150: 3530 2a3d 0288 70bd 712e 253e 2d4c 9abc
00000160: 024c 90bd 509d e5bd 3e0b 0dbe b469 153d
00000170: eef3 b3bd 0116 a9bd 1556 2b3e cfcb 07be
00000180: a0ab 4fbd dd0b 1fbe 4dc6 cebd ee33 9bbc
00000190: eb64 7039 6298 783d 3dd7 2c3e 77e9 30be
000001a0: b9c0 3fbd 0044 2ebe 61a5 233d dada 28bc
000001b0: 2ff0 3bbd 8015 bb3d eed2 013e e2b6 af3d
000001c0: 99b2 0dbe 2e83 db3d e930 eebd ec1a 6a3c
000001d0: 4b7a 113e 49c4 bebc a238 a03d a7d1 f13c
000001e0: cfd9 873c d1f6 fcbd 345d ec3d c570 59bc
000001f0: 3c14 e03d 4d58 8b3b c122 d3bc a707 6a3c
00000200: afc1 023d 3b30 4b3d 858f 5fbd c162 d63c
00000210: 1470 aabd b2ae 00be e07b b3bd 9985 31be
00000220: afbe 94bd 69d0 d03d 0421 13be d440 d33d
00000230: 5be4 e03d 1706 50bd ed37 42bd 0bc9 8e3d
00000240: 3ddd c5bc 30bf d83d c3e9 2a3e ab1e 98bc
00000250: af5a c0bd a8bb 2bbd cbd9 dabc 44e5 333e
00000260: c8bf dfbd 2ac0 7fbc b31b b7bb c57c 0bbe
00000270: 14b1 1c3e 3b9a a3bd c627 74bd b071 81bd
00000280: ac06 063e 9507 023d fd10 813d 7b14 57bd
00000290: d395 003e b8a3 6bbd 209d 093e e37e 0e3d
000002a0: 520f 17be 2fbb 70bd 7308 b1bd 17af f13d
000002b0: d412 cc3d 30b9 e5bb 92d7 88bd 2f6b 993c
000002c0: db0b 3bbb 437a 023e b140 2ebd 51ed 083e
000002d0: 0f54 a8bd ac3d 0abe d7e7 303e 615d 30be
000002e0: 78ea 12be 6158 e937 25a0 cb3d 7ddf 193e
000002f0: 4458 1a3e 94bb af3d 8cb1 b1bd e8c9 5ebd
00000300: cb9e 993d b5c5 8a3c 5a84 033e 026c 9e3d
00000310: 7f82 863d e8fc 08be fc2a b6bd 6eb8 ff3c
00000320: e368 7abb f16a e93c d4fa 1cbe 4a2e a5bd
00000330: d0a3 fbbd d35f c8bc 414d 32be 4210 5cbd
00000340: 8217 003e 375d 2b3d 6ef3 2f3d d0f4 dd3d
00000350: 6d32 29be 4b83 7e3d 2d80 c3bc 0f77 1dbe
00000360: 5340 9cbc 68ed cb3d c0e2 693d 4a20 08be
00000370: 6f78 ef3d 331b 8b3d 08d5 aebb 6b2c 043e
00000380: 363d 1a3e b204 f23a 9061 97bd f633 a23b
00000390: f48c 01be db82 a93d edf9 27be ba1b 64bd
000003a0: f3d2 123e 00f0 52bd 2152 21bc d907 5abd
000003b0: d4c4 7b3d ee1f c2bd d9d8 ca3d 7991 87bd
000003c0: d3f5 e03c d26e 953d 166b 34be 2af8 19be
000003d0: b48a bb3d c08b 87bd a87b 28be f9ea 2f3e
000003e0: 0590 acbd cb7e 11be 9c51 babd 0bca be3d
000003f0: e140 1bbe cb7f 1f3d 8be9 243d 4c27 66bd
0.059551135 0.020823957 0.02180619 0.059067987 0.060760815 -0.11532292 -0.16703472 0.03193747
-0.02450049 0.13829972 -0.034079056 -0.106813304 0.06876842 -0.13215315 0.041797683 -0.08981571
0.042820334 -0.038730953 0.0798707 0.026505794 -0.10618161 0.11039623 -0.11330149 -0.007120773
0.12278658 -0.037202347 0.09550444 -0.1258373 -0.16318202 -0.14290772 -0.018310614 -0.10655381
-0.035048727 0.07366856 -0.16362934 -0.17067176 0.13677682 0.046907503 0.018051263 0.0678861
0.018232979 0.086073324 0.03665916 -0.11955042 -0.051715385 0.122305475 -0.15088959 0.047543205
0.035013746 -0.17000772 0.07954647 -0.0037981265 0.013103539 -0.08483206 -0.15598822 -0.029135885
0.12490566 -0.0004160737 0.08008641 0.17439204 -0.103175186 0.11755525 0.16804121 0.036798917
-0.036561295 -0.12681589 0.10169255 -0.05005073 -0.16604486 0.120554484 -0.16083919 0.04578372
-0.050205745 -0.042173486 -0.15714929 -0.15493071 -0.16423348 0.00061528076 0.10644043 0.0944686
-0.03397236 -0.0324438 0.027075304 -0.17229201 0.04154988 -0.058723457 0.16130997 -0.018835152
-0.07045747 -0.112116456 -0.1377382 0.03647776 -0.0878676 -0.0825615 0.16732056 -0.1326134
-0.050700784 -0.15531869 -0.100964166 -0.01894566 0.00022925778 0.0606922 0.16878982 -0.1727656
-0.046814654 -0.17018127 0.03995264 -0.0103060845 -0.045883354 0.0913496 0.1267812 0.08579804
-0.13837661 0.1071838 -0.116304226 0.014288645 0.14206807 -0.023286955 0.07823302 0.029518915
0.016583351 -0.12351764 0.115412146 -0.013271515 0.109413594 0.0042524696 -0.025773408 0.014284051
0.031922992 0.049606543 -0.05458023 0.026170136 -0.083221585 -0.12566641 -0.08763862 -0.1733612
-0.072629325 0.10196001 -0.14368063 0.10315099 0.10981055 -0.050787058 -0.047416616 0.0697194
-0.024153346 0.10583341 0.16690736 -0.018569311 -0.093922965 -0.04192701 -0.02671518 0.17567927
-0.10925251 -0.01560978 -0.005588019 -0.13621815 0.15301925 -0.079884015 -0.059608243 -0.06320512
0.13088483 0.031745512 0.063020684 -0.052509766 0.12557153 -0.05752918 0.13438845 0.034788977
-0.14751938 -0.058772262 -0.0864419 0.11800974 0.09964529 -0.0070106015 -0.06681742 0.018727867
-0.0028541002 0.12741952 -0.042542163 0.13371779 -0.08219158 -0.13500088 0.1727594 -0.17223121
-0.14347255 2.781692e-05 0.099426545 0.1502666 0.15072733 0.085806996 -0.086764425 -0.05439177
0.075009905 0.016939977 0.12843457 0.077354446 0.06567859 -0.13377726 -0.08894917 0.031215873
-0.003820949 0.028493376 -0.15330058 -0.080654696 -0.12287104 -0.024459755 -0.17412283 -0.053726442
0.12508968 0.041836943 0.042956762 0.1083771 -0.16523142 0.06213693 -0.02386483 -0.15377448
-0.01907364 0.09957391 0.05710101 -0.13293567 0.11692893 0.06792297 -0.005335454 0.12907569
0.15062413 0.0018464534 -0.073916554 0.004950042 -0.12651426 0.08276912 -0.16403933 -0.055690505
0.14338283 -0.051498413 -0.009846241 -0.05323014 0.061467007 -0.09478746 0.09904642 -0.066195436
0.027460968 0.07296528 -0.17618975 -0.15036073 0.09157315 -0.06618452 -0.16453421 0.17179479
-0.08425907 -0.14208524 -0.09097597 0.093158804 -0.15161468 0.038940232 0.040261786 -0.05618982

bias_ih_l0_reverse f4 [128]
00000000: 3b62 73bf 5687 a9be 8571 ddbe 9fad f4be
00000010: fe42 7ebf 9ae9 afbe 8bf7 e8be 8813 3dbf
00000020: 7add 9abe e836 c6be 22cd b1be e702 82bf
00000030: 0283 21bf 6cb4 32bf 04cb 7dbf 3400 19bf
00000040: d814 c4be 03b0 ecbe e24f 24bf 4917 49bf
00000050: 2621 5bbf dd9d 9bbe 2f8a acbe 15c4 66bf
00000060: 7587 26bf f0b0 92bf 75f4 01bf bf40 33bf
00000070: 8387 f6be c877 01bf ffcc 5abf f913 41bf
00000080: ad31 23be 0485 ce3d c3fe 6b3c 9f4e 1cbe
00000090: 2f75 6b3d d1df 923d 30de 0d3e 7ca0 0a3e
000000a0: 2aeb 813c 952d 4bbd 1545 18be 20ab c9bd
000000b0: f27f 9bbc 0a59 223e 3778 f73d e7b8 1cbe
000000c0: 7afe e23d dc8b b6bd 3c17 f43d c03e e03d
000000d0: 8c0e be3d 4185 0abe 5706 b33d 6d86 2dbe
000000e0: 51de 04be 0427 dc3d a390 823d 0724 893c
000000f0: 57ad 27be 4155 ebbd 89af 7d3d a69d 833d
00000100: c30e b53e 52af 213e 4bef 503e a5b0 bd3e
00000110: 61bc 58bd 99e1 e93d 548f 93bd cbf0 cb3e
00000120: cc7a b9bd 7d93 39be 3180 e83d e55e cd3d
00000130: 0b53 c93d 227b fe3d cc90 5fbe d5d5 fa3d
00000140: 7a74 aa3e adae f0bc c43d ef3e 5fda 9c3e
00000150: 13c7 c8be dcc3 60be af81 e73e a9ff 8abd
00000160: c745 98be bdc3 123e e079 62be cd48 043e
00000170: d895 173e 0a54 e03c f57f 7b3e 3552 963e
00000180: 0c57 74bf 613d 83be bf7c 79be 0b89 24bf
00000190: 5070 95bf c4b3 2abf 5e48 b0be 96dc 2abf
000001a0: ec83 2cbe ee47 cabe af79 e6bd 1f7b 54bf
000001b0: b7e3 1cbf d431 04bf 5b25 40bf 559e 30bf
000001c0: 196c e9be e787 e0bd 2ebd 48bf 340f 72bf
000001d0: fe82 41bf bbc3 dfbe 4ed8 b9be 5f9b 13bf
000001e0: e357 11bf 81c9 49bf 5178 d5be e675 ffbe
000001f0: ee44 0bbf 8cb0 bfbe b5e6 f7be 10e4 3abf
-0.9507176 -0.33111066 -0.4325067 -0.47788712 -0.9932097 -0.3435791 -0.4550136 -0.7385793
-0.30247098 -0.38713765 -0.34726816 -1.0157136 -0.6309053 -0.6980655 -0.991379 -0.59765935
-0.38297153 -0.46228036 -0.6418439 -0.78551155 -0.85597456 -0.30393878 -0.33699176 -0.9014295
-0.6505044 -1.1460247 -0.50763637 -0.7002067 -0.48150262 -0.50573397 -0.8546905 -0.754211
-0.15936919 0.100839645 0.014404002 -0.15264367 0.0574848 0.07171596 0.13854289 0.13537782
0.015859205 -0.049604017 -0.14870103 -0.09847093 -0.018981908 0.15854278 0.12083476 -0.1530491
0.11083694 -0.08913395 0.11918494 0.109494686 0.09280118 -0.13527395 0.087414436 -0.1694581
-0.12975432 0.10749629 0.063752435 0.016740812 -0.16374718 -0.1149087 0.06193498 0.064265534
0.35362825 0.15789536 0.20403783 0.37048832 -0.052914027 0.114199825 -0.07205072 0.39832148
-0.09056625 -0.18122669 0.113525756 0.10027865 0.09830292 0.124258295 -0.2183258 0.122478165
0.3329199 -0.029380167 0.4672681 0.30635354 -0.39214382 -0.21949714 0.45216128 -0.067870446
-0.29740736 0.1433248 -0.22116804 0.12918396 0.14803255 0.027383823 0.2456053 0.29359594
-0.95445323 -0.25632766 -0.24363993 -0.6427161 -1.16749 -0.6668055 -0.34430212 -0.6674284
-0.16847199 -0.39508003 -0.11253678 -0.8300037 -0.61284965 -0.5163853 -0.75057 -0.68991596
-0.45590284 -0.10963421 -0.78413665 -0.9455445 -0.75590503 -0.43704018 -0.3629784 -0.5765895
-0.5677473 -0.78823096 -0.41693357 -0.49894637 -0.54402053 -0.37439382 -0.48418203 -0.73004246

bias_hh_l0_reverse f4 [128]
00000000: 286b 53bf ba14 a7be 552b 96be d092 fabe
00000010: d6de 81bf 47c1 2abf 6d9b cabe 7b9d 50bf
00000020: 5ca7 a1be 393e 16bf 7f31 b1be 3669 66bf
00000030: d2b6 50bf 6852 f1be 3f16 68bf feac 1abf
00000040: 91cd 2fbf 841d d7be 5c3a 31bf a512 42bf
00000050: 9acd 4dbf 6274 bdbe 008c debe 292b 14bf
00000060: 6e7c 2abf 757f 5cbf f668 19bf 1069 dcbe
00000070: e05a f7be 5776 78be 93b1 13bf 584b 40bf
00000080: ee69 f93c b9c8 9dbd f4bc c1bd 0edd a53c
00000090: 7017 dc3d 91fa 2f3e 4ac7 53b9 4a47 e7bd
000000a0: 3239 2fbe b066 30bd 5dc1 1cbe 93ef 07be
000000b0: 22b6 ff3d 1c5d 9f3d fa30 a2bd 4e28 cabc
000000c0: bc79 803d e054 13be f1a0 073e 3948 053e
000000d0: 7c5c 053e efd2 15be f2e8 323e 91c3 013e
000000e0: 6e1f e2bd c973 2dbd 206f 8fbd 1986 c13d
000000f0: ee6c 0f3e 6994 dcbd 7840 a63d 2cfd 813d
00000100: 2756 893e bc5a 953e a103 833e 2da1 2b3d
00000110: 6df8 9ebd 7db5 a43e 3782 1c3e d937 903e
00000120: 7c2e 0ebe 743d 6dbe 498b dc3d faaa a83e
00000130: 9f69 bf3e 8522 9d3e 23b7 9dbe 7f6b 963e
00000140: 5988 3c3e ea6d abbd 1efc d73e 700e 0a3d
00000150: 108d bbbe 84fe f8bd 3878 1c3f 9ec4 84be
00000160: 061a c7bd e08a 1f3e 9f4b b5bd 01e1 44bd
00000170: 690b 10bc 91f8 593e 32fe 9b3e cb65 c73e
00000180: 87a3 36bf 6adc 3bbe 709e dcbe a460 0cbf
00000190: 049a 81bf 1693 1bbf f831 0dbf 1fc9 5fbf
000001a0: 027a bfbe fd57 0bbf ebf2 d5bd b0a4 77bf
000001b0: f532 45bf 3b82 0bbf ea40 7ebf a2e8 cebe
000001c0: d51e e1be b46c 93be dd95 52bf 2f3a 79bf
000001d0: fbd1 23bf 841d 11be c024 babe 6e0a 1cbf
000001e0: 7c6e f9be 696a 84bf 1311 04bf 98ed b3be
000001f0: a9fb e4be 319d aebe 3b73 3bbf d8ef 6dbf
-0.8258538 -0.32633 -0.29329935 -0.48940134 -1.0146129 -0.6670117 -0.39571705 -0.81490296
-0.31572998 -0.58688694 -0.34608075 -0.9000429 -0.8152896 -0.47133183 -0.90658945 -0.60420215
-0.68673044 -0.42014706 -0.69229674 -0.758097 -0.8039185 -0.37002856 -0.43466187 -0.5787836
-0.66596115 -0.86131984 -0.5992578 -0.43048906 -0.4831152 -0.24263893 -0.5769283 -0.75114965
0.030446019 -0.077043004 -0.09459868 0.020247009 0.10746658 0.17185427 -0.00020196769 -0.11292894
-0.17111662 -0.04306668 -0.15308137 -0.13274984 0.12485911 0.07781431 -0.07919498 -0.024677422
0.06273219 -0.14387846 0.13244988 0.13015832 0.13023561 -0.14631246 0.17471674 0.12672259
-0.11041151 -0.04234675 -0.07003617 0.09449405 0.14006397 -0.107704945 0.08117765 0.06347117
0.26823542 0.29170787 0.25588706 0.041901756 -0.07762227 0.32169715 0.15284048 0.28167608
-0.1388492 -0.23167974 0.10768754 0.32942945 0.3738527 0.306904 -0.30803785 0.29378888
0.18411388 -0.08370574 0.42184538 0.033705175 -0.3663106 -0.1215792 0.6112094 -0.25931257
-0.097217605 0.1558032 -0.08852314 -0.048066143 -0.008791783 0.21286227 0.30467373 0.3894485
-0.7134327 -0.183458 -0.43089628 -0.5483496 -1.0125127 -0.6077131 -0.5515437 -0.8741626
-0.37397772 -0.54431134 -0.104467236 -0.9673567 -0.7703088 -0.5449559 -0.993178 -0.4041186
-0.43968835 -0.2879387 -0.82259923 -0.97354406 -0.6399228 -0.14171416 -0.36356163 -0.60953414
-0.48717105 -1.0344974 -0.51588553 -0.35142207 -0.4472325 -0.34104303 -0.732227 -0.929441

weight f4 [128, 64]
00000000: 76cd 7abf 0d0f 3dbd 8543 f03d cf2d 803e
00000010: 87d9 ecbc feb7 023d 25ea e83c 2ff1 b1be
00000020: e502 963d d16b 84bd a04b 23be 495a 5dbd
00000030: 3fb0 323c d4de debc 2675 0abe 3b2b 6dbc
00000040: 606e 04be c3d6 ffbb 9a26 8e3d adaa a8ba
00000050: 71ed e1bc f78d b83c fea1 cdbc 129b 8bbe
00000060: ce89 05bf bf78 393e c834 7d3c d0c3 3ebb
00000070: af99 ca3d c2b2 723e 86b8 c83d d096 ac3d
00000080: 5764 e43d 5c1d 543d 8636 153e 277a bd3d
00000090: 22e0 863e 5c86 dfbc d28b 9a3d b220 e3bd
000000a0: fe3d 71be 4238 d4bd 01fc 843e b7d7 a8be
000000b0: 5ca6 c9bc 086d 06be d856 97bb afdf c7bd
000000c0: c574 8bbe aebc e2be 8df4 d8bd 06f2 23bd
000000d0: 4e4c 983d 3748 5cbd 7d0c 533e 8d39 9d3e
000000e0: 1b1a 463e 47b0 87bc 87e0 f2bd 118a e13c
000000f0: 3a8a 11be 06ea 513d ff9c 71be f3f1 9ebc
00000100: 691b 4abf 3f03 2e40 e68b da3f ab2d 9d3f
00000110: 572e 7dbf 8246 ac3f 0c71 ee3f 0af3 9dbf
00000120: 5dfc 38bf 1cb2 37bf 4115 b83e 5cd8 03c0
00000130: bd58 d23e 68a3 a8bf 4494 c6bf b6da 38bc
00000140: 76b5 5ebf 6646 713f 03ee 8bbf d133 273e
00000150: 3736 373f 17db e33d 0168 62be dc48 9ebf
00000160: 62ee 4ebf 3cec d7bf fb00 61bd eea8 27bf
00000170: 75dd b83e ebf6 2abf 4154 20bf 594a 19bf
00000180: 58ed 453d 6785 863f 7565 8a3f 034c 27bf
00000190: 3bdb 423e e661 39be eecb 793f cc37 863d
000001a0: a062 66bf 82d1 29bd 3568 6f3f e4dd a2bc
000001b0: 49f4 89be a873 b4be e235 dcbd c0a0 e53f
000001c0: 9b4b eabd b217 3ebf 7654 c83d a05e 9a3d
000001d0: 788a 8ebd cb33 5fbf 03e5 d73e d3de c5bf
000001e0: 3e14 21be 48c6 483d 579c 2c3f 320e 9bbf
000001f0: d88c 66bf e0e4 4a3f 578d cc3f d861 203e
00000200: cdac bc3c 274d 853d 4ffa e9bd 028d 723c
00000210: d0f4 973d 44bb 0abd 236f 8d3e 6e53 c53e
00000220: 6a8d d7bd 7cb5 163d 0f5b 93bc 8acc 18bd
00000230: 9efd 1b3d 686b d7bc 5840 e63e 1650 1bbd
00000240: 38af 883d c717 93be 02b4 8dbd b5ff 06bd
00000250: 6a15 3cbd 8cee eebc 7f4d f2bc 3e3a c13e
00000260: 2343 a13e b82a 08bf cd9e ad3d 2ab7 e6bb
00000270: c1e4 873d 544b 853e c291 523c 0537 393d
00000280: bf12 a53d 12db 0dbf b60d 0ebf c2a0 3cbe
00000290: a512 c4bd a75c 11be a199 e4be 94f8 a8be
000002a0: 5af3 1d3f 42f5 8a3e 7418 0abf b5c9 75be
000002b0: e6d4 0a3f ad91 1a3e aec0 803e ff13 93be
000002c0: 1556 22bd 86f2 2d3f 3bd8 efbe d876 a6be
000002d0: 915d 773e e22f ab3e 4fe6 28bc dc8d e33e
000002e0: 8ff5 813e bfc9 14be 35e8 f7be 0ebd b83e
000002f0: 61eb 533d 6292 34bf bfe2 84be 7367 cbbe
00000300: 5e29 41bf 1b97 62be fa26 ef3d e2f0 fd3d
00000310: 77e3 cebc ebf2 12bc 2199 c9bc 8e97 91be
00000320: a297 b43d f022 843d 1f06 e93a bd8b 053e
00000330: 35d3 11bd c5ef c7bc 9c62 c2be 0039 183d
00000340: 30d9 44bd c175 e13d 8ee9 083f 08cb 45bd
00000350: 1023 fdbc fa4a 073d e5aa a5ba 9331 0d3e
00000360: 6c14 84bd 0968 d63e 65d5 a7bd ec37 cbbc
00000370: 6b41 af3d 732d 3f3e 0292 a33c 5b58 0f3c
00000380: 751c df3d 2132 173d f3b2 8fbd 898b 0cbd
00000390: b3bb a83b b34e f9bd b989 d03d 1348 95bd
000003a0: b5c0 39bc 56c7 ecbd f5e3 ae3d 717d b0bd
000003b0: 7176 f3bd 0b25 efbd 12b2 cd3d fdac bdbd
000003c0: 67b2 4fbe aa67 acbd 9c9a 70bc b9dc a2bd
000003d0: 2dbf ab3d 2278 353e bf51 1ebe e8da 393e
000003e0: 2edd 9d3e 150b 3fbd a044 cdbc 7aaa 4ebe
000003f0: 745e bebc 3239 633c 28b3 993c c7c7 ebbd
-0.9796976 -0.04615693 0.11731628 0.2503495 -0.028912319 0.03191375 0.028431961 -0.3475432
0.07324771 -0.06465877 -0.15946817 -0.05404118 0.010906278 -0.027205862 -0.13521251 -0.014475639
-0.1293273 -0.007807584 0.069409564 -0.0012868248 -0.027579041 0.022528632 -0.025101658 -0.27266747
-0.521634 0.18112467 0.015454479 -0.0029108413 0.09892594 0.23701003 0.0980082 0.08427203
0.11151951 0.05178581 0.1457158 0.09251814 0.26342875 -0.027285747 0.075462 -0.110902205
-0.23558804 -0.10362293 0.25973514 -0.32977077 -0.02461546 -0.1312753 -0.004618507 -0.09759461
-0.27237526 -0.44284576 -0.10593519 -0.040025733 0.07436429 -0.053779807 0.20610233 0.3070797
0.19345896 -0.016563548 -0.118592314 0.027531656 -0.14212885 0.051248573 -0.23595046 -0.01940248
-0.78948075 2.7189481 1.7073944 1.2279562 -0.98898834 1.3459017 1.8628249 -1.2339795
-0.72260076 -0.7175615 0.35953715 -2.0600805 0.41083327 -1.3174868 -1.5513997 -0.0112826135
-0.8699564 0.94248044 -1.093201 0.1632836 0.715671 0.111257724 -0.22109987 -1.2365985
-0.80832493 -1.6868968 -0.054932576 -0.6549214 0.36106458 -0.66783017 -0.6262856 -0.5987907
0.04832205 1.0509461 1.0812212 -0.6535036 0.19028942 -0.18103752 0.97576797 0.06553611
-0.8999424 -0.041459568 0.9351838 -0.019881196 -0.26944187 -0.3524449 -0.10752465 1.7939682
-0.11440202 -0.74254906 0.09781735 0.075375795 -0.069600046 -0.87188405 0.4216691 -1.5458626
-0.15730378 0.04901722 0.67426056 -1.2113707 -0.9005866 0.79255486 1.5980633 0.15662324
0.023031617 0.06508856 -0.11424696 0.014804127 0.07419741 -0.033869997 0.27623853 0.38540214
-0.105250195 0.03679417 -0.017987756 -0.03730444 0.038083665 -0.026296332 0.44970965 -0.037918173
0.06674045 -0.28729078 -0.069190994 -0.032958705 -0.04591886 -0.029166482 -0.029577969 0.37739748
0.31496534 -0.53190184 0.084775545 -0.007040878 0.06635428 0.26034033 0.012852134 0.045218486
0.08060216 -0.554124 -0.5548967 -0.18420699 -0.09573869 -0.141955 -0.4464846 -0.3300215
0.6169945 0.27140242 -0.5394356 -0.24002726 0.5423111 0.15094633 0.25147003 -0.28726193
-0.039632875 0.67948186 -0.46844658 -0.32512546 0.24156787 0.3343497 -0.010308816 0.44444168
0.2538266 -0.14530085 -0.48419347 0.36081737 0.051738147 -0.7053586 -0.25954244 -0.39727363
-0.75453746 -0.22127955 0.11677356 0.123994604 -0.025254948 -0.008969049 -0.02460915 -0.2843594
0.08817984 0.06451976 0.0017778313 0.13041587 -0.035601813 -0.024406323 -0.37965858 0.037163734
-0.04805869 0.11008788 0.53481376 -0.04828933 -0.030900508 0.033030488 -0.0012639432 0.13788442
-0.06449208 0.41876248 -0.08194999 -0.024806939 0.08557399 0.18669681 0.019967083 0.008749093
0.108940996 0.03691304 -0.07016554 -0.03431276 0.0051493286 -0.12173214 0.101825185 -0.07289138
-0.011337449 -0.11561458 0.08539573 -0.08617676 -0.11887825 -0.11676987 0.1004373 -0.092615105
-0.20282899 -0.0841821 -0.014685299 -0.07952256 0.08386073 0.17721608 -0.15460871 0.18149912
0.3083281 -0.046641428 -0.025057137 -0.20182219 -0.023238398 0.013868617 0.018762186 -0.11512714
